…
2024-04-26 01:04:35,639:[P:3148]:Rank[0/2] => init weight of Linear from trunc norm
2024-04-26 01:04:35,640:[P:3148]:Rank[0/2] => init bias of Linear to zeros
2024-04-26 01:04:35,640:[P:3148]:Rank[0/2] => init weight of Linear from trunc norm
2024-04-26 01:04:35,644:[P:3148]:Rank[0/2] => init bias of Linear to zeros
2024-04-26 01:04:35,644:[P:3148]:Rank[0/2] => init weight of Linear from trunc norm
2024-04-26 01:04:35,648:[P:3148]:Rank[0/2] => init bias of Linear to zeros
2024-04-26 01:04:35,792:[P:3148]:Rank[0/2] => ConvolutionalVisionTransformer(
  (stage0): VisionTransformer(
    (patch_embed): ConvEmbed(
      (proj): Conv2d(3, 64, kernel_size=(7, 7), stride=(4, 4), padding=(2, 2))
      (norm): LayerNorm((64,), eps=1e-05, elementwise_affine=True)
    )
    (pos_drop): Dropout(p=0.0, inplace=False)
    (blocks): ModuleList(
      (0): Block(
        (norm1): LayerNorm((64,), eps=1e-05, elementwise_affine=True)
        (attn): Attention(
          (conv_proj_q): Sequential(
            (conv): Conv2d(64, 64, kernel_size=(3, 3), stride=(1, 1), padding=(1, 1), groups=64, bias=False)
            (bn): BatchNorm2d(64, eps=1e-05, momentum=0.1, affine=True, track_running_stats=True)
            (rearrage): Rearrange('b c h w -> b (h w) c')
          )
          (conv_proj_k): Sequential(
            (conv): Conv2d(64, 64, kernel_size=(3, 3), stride=(2, 2), padding=(1, 1), groups=64, bias=False)
            (bn): BatchNorm2d(64, eps=1e-05, momentum=0.1, affine=True, track_running_stats=True)
            (rearrage): Rearrange('b c h w -> b (h w) c')
          )
          (conv_proj_v): Sequential(
            (conv): Conv2d(64, 64, kernel_size=(3, 3), stride=(2, 2), padding=(1, 1), groups=64, bias=False)
            (bn): BatchNorm2d(64, eps=1e-05, momentum=0.1, affine=True, track_running_stats=True)
            (rearrage): Rearrange('b c h w -> b (h w) c')
          )
          (proj_q): Linear(in_features=64, out_features=64, bias=True)
          (proj_k): Linear(in_features=64, out_features=64, bias=True)
          (proj_v): Linear(in_features=64, out_features=64, bias=True)
          (attn_drop): Dropout(p=0.0, inplace=False)
          (proj): Linear(in_features=64, out_features=64, bias=True)
          (proj_drop): Dropout(p=0.0, inplace=False)
        )
        (drop_path): Identity()
        (norm2): LayerNorm((64,), eps=1e-05, elementwise_affine=True)
        (mlp): Mlp(
          (fc1): Linear(in_features=64, out_features=256, bias=True)
          (act): QuickGELU()
          (fc2): Linear(in_features=256, out_features=64, bias=True)
          (drop): Dropout(p=0.0, inplace=False)
        )
      )
    )
  )
  (stage1): VisionTransformer(
    (patch_embed): ConvEmbed(
      (proj): Conv2d(64, 192, kernel_size=(3, 3), stride=(2, 2), padding=(1, 1))
      (norm): LayerNorm((192,), eps=1e-05, elementwise_affine=True)
    )
    (pos_drop): Dropout(p=0.0, inplace=False)
    (blocks): ModuleList(
      (0-3): 4 x Block(
        (norm1): LayerNorm((192,), eps=1e-05, elementwise_affine=True)
        (attn): Attention(
          (conv_proj_q): Sequential(
            (conv): Conv2d(192, 192, kernel_size=(3, 3), stride=(1, 1), padding=(1, 1), groups=192, bias=False)
            (bn): BatchNorm2d(192, eps=1e-05, momentum=0.1, affine=True, track_running_stats=True)
            (rearrage): Rearrange('b c h w -> b (h w) c')
          )
          (conv_proj_k): Sequential(
            (conv): Conv2d(192, 192, kernel_size=(3, 3), stride=(2, 2), padding=(1, 1), groups=192, bias=False)
            (bn): BatchNorm2d(192, eps=1e-05, momentum=0.1, affine=True, track_running_stats=True)
            (rearrage): Rearrange('b c h w -> b (h w) c')
          )
          (conv_proj_v): Sequential(
            (conv): Conv2d(192, 192, kernel_size=(3, 3), stride=(2, 2), padding=(1, 1), groups=192, bias=False)
            (bn): BatchNorm2d(192, eps=1e-05, momentum=0.1, affine=True, track_running_stats=True)
            (rearrage): Rearrange('b c h w -> b (h w) c')
          )
          (proj_q): Linear(in_features=192, out_features=192, bias=True)
          (proj_k): Linear(in_features=192, out_features=192, bias=True)
          (proj_v): Linear(in_features=192, out_features=192, bias=True)
          (attn_drop): Dropout(p=0.0, inplace=False)
          (proj): Linear(in_features=192, out_features=192, bias=True)
          (proj_drop): Dropout(p=0.0, inplace=False)
        )
        (drop_path): Identity()
        (norm2): LayerNorm((192,), eps=1e-05, elementwise_affine=True)
        (mlp): Mlp(
          (fc1): Linear(in_features=192, out_features=768, bias=True)
          (act): QuickGELU()
          (fc2): Linear(in_features=768, out_features=192, bias=True)
          (drop): Dropout(p=0.0, inplace=False)
        )
      )
    )
  )
  (stage2): VisionTransformer(
    (patch_embed): ConvEmbed(
      (proj): Conv2d(192, 384, kernel_size=(3, 3), stride=(2, 2), padding=(1, 1))
      (norm): LayerNorm((384,), eps=1e-05, elementwise_affine=True)
    )
    (pos_drop): Dropout(p=0.0, inplace=False)
    (blocks): ModuleList(
      (0): Block(
        (norm1): LayerNorm((384,), eps=1e-05, elementwise_affine=True)
        (attn): Attention(
          (conv_proj_q): Sequential(
            (conv): Conv2d(384, 384, kernel_size=(3, 3), stride=(1, 1), padding=(1, 1), groups=384, bias=False)
            (bn): BatchNorm2d(384, eps=1e-05, momentum=0.1, affine=True, track_running_stats=True)
            (rearrage): Rearrange('b c h w -> b (h w) c')
          )
          (conv_proj_k): Sequential(
            (conv): Conv2d(384, 384, kernel_size=(3, 3), stride=(2, 2), padding=(1, 1), groups=384, bias=False)
            (bn): BatchNorm2d(384, eps=1e-05, momentum=0.1, affine=True, track_running_stats=True)
            (rearrage): Rearrange('b c h w -> b (h w) c')
          )
          (conv_proj_v): Sequential(
            (conv): Conv2d(384, 384, kernel_size=(3, 3), stride=(2, 2), padding=(1, 1), groups=384, bias=False)
            (bn): BatchNorm2d(384, eps=1e-05, momentum=0.1, affine=True, track_running_stats=True)
            (rearrage): Rearrange('b c h w -> b (h w) c')
          )
          (proj_q): Linear(in_features=384, out_features=384, bias=True)
          (proj_k): Linear(in_features=384, out_features=384, bias=True)
          (proj_v): Linear(in_features=384, out_features=384, bias=True)
          (attn_drop): Dropout(p=0.0, inplace=False)
          (proj): Linear(in_features=384, out_features=384, bias=True)
          (proj_drop): Dropout(p=0.0, inplace=False)
        )
        (drop_path): Identity()
        (norm2): LayerNorm((384,), eps=1e-05, elementwise_affine=True)
        (mlp): Mlp(
          (fc1): Linear(in_features=384, out_features=1536, bias=True)
          (act): QuickGELU()
          (fc2): Linear(in_features=1536, out_features=384, bias=True)
          (drop): Dropout(p=0.0, inplace=False)
        )
      )
      (1): Block(
        (norm1): LayerNorm((384,), eps=1e-05, elementwise_affine=True)
        (attn): Attention(
          (conv_proj_q): Sequential(
            (conv): Conv2d(384, 384, kernel_size=(3, 3), stride=(1, 1), padding=(1, 1), groups=384, bias=False)
            (bn): BatchNorm2d(384, eps=1e-05, momentum=0.1, affine=True, track_running_stats=True)
            (rearrage): Rearrange('b c h w -> b (h w) c')
          )
          (conv_proj_k): Sequential(
            (conv): Conv2d(384, 384, kernel_size=(3, 3), stride=(2, 2), padding=(1, 1), groups=384, bias=False)
            (bn): BatchNorm2d(384, eps=1e-05, momentum=0.1, affine=True, track_running_stats=True)
            (rearrage): Rearrange('b c h w -> b (h w) c')
          )
          (conv_proj_v): Sequential(
            (conv): Conv2d(384, 384, kernel_size=(3, 3), stride=(2, 2), padding=(1, 1), groups=384, bias=False)
            (bn): BatchNorm2d(384, eps=1e-05, momentum=0.1, affine=True, track_running_stats=True)
            (rearrage): Rearrange('b c h w -> b (h w) c')
          )
          (proj_q): Linear(in_features=384, out_features=384, bias=True)
          (proj_k): Linear(in_features=384, out_features=384, bias=True)
          (proj_v): Linear(in_features=384, out_features=384, bias=True)
          (attn_drop): Dropout(p=0.0, inplace=False)
          (proj): Linear(in_features=384, out_features=384, bias=True)
          (proj_drop): Dropout(p=0.0, inplace=False)
        )
        (drop_path): DropPath(drop_prob=0.007)
        (norm2): LayerNorm((384,), eps=1e-05, elementwise_affine=True)
        (mlp): Mlp(
          (fc1): Linear(in_features=384, out_features=1536, bias=True)
          (act): QuickGELU()
          (fc2): Linear(in_features=1536, out_features=384, bias=True)
          (drop): Dropout(p=0.0, inplace=False)
        )
      )
      (2): Block(
        (norm1): LayerNorm((384,), eps=1e-05, elementwise_affine=True)
        (attn): Attention(
          (conv_proj_q): Sequential(
            (conv): Conv2d(384, 384, kernel_size=(3, 3), stride=(1, 1), padding=(1, 1), groups=384, bias=False)
            (bn): BatchNorm2d(384, eps=1e-05, momentum=0.1, affine=True, track_running_stats=True)
            (rearrage): Rearrange('b c h w -> b (h w) c')
          )
          (conv_proj_k): Sequential(
            (conv): Conv2d(384, 384, kernel_size=(3, 3), stride=(2, 2), padding=(1, 1), groups=384, bias=False)
            (bn): BatchNorm2d(384, eps=1e-05, momentum=0.1, affine=True, track_running_stats=True)
            (rearrage): Rearrange('b c h w -> b (h w) c')
          )
          (conv_proj_v): Sequential(
            (conv): Conv2d(384, 384, kernel_size=(3, 3), stride=(2, 2), padding=(1, 1), groups=384, bias=False)
            (bn): BatchNorm2d(384, eps=1e-05, momentum=0.1, affine=True, track_running_stats=True)
            (rearrage): Rearrange('b c h w -> b (h w) c')
          )
          (proj_q): Linear(in_features=384, out_features=384, bias=True)
          (proj_k): Linear(in_features=384, out_features=384, bias=True)
          (proj_v): Linear(in_features=384, out_features=384, bias=True)
          (attn_drop): Dropout(p=0.0, inplace=False)
          (proj): Linear(in_features=384, out_features=384, bias=True)
          (proj_drop): Dropout(p=0.0, inplace=False)
        )
        (drop_path): DropPath(drop_prob=0.013)
        (norm2): LayerNorm((384,), eps=1e-05, elementwise_affine=True)
        (mlp): Mlp(
          (fc1): Linear(in_features=384, out_features=1536, bias=True)
          (act): QuickGELU()
          (fc2): Linear(in_features=1536, out_features=384, bias=True)
          (drop): Dropout(p=0.0, inplace=False)
        )
      )
      (3): Block(
        (norm1): LayerNorm((384,), eps=1e-05, elementwise_affine=True)
        (attn): Attention(
          (conv_proj_q): Sequential(
            (conv): Conv2d(384, 384, kernel_size=(3, 3), stride=(1, 1), padding=(1, 1), groups=384, bias=False)
            (bn): BatchNorm2d(384, eps=1e-05, momentum=0.1, affine=True, track_running_stats=True)
            (rearrage): Rearrange('b c h w -> b (h w) c')
          )
          (conv_proj_k): Sequential(
            (conv): Conv2d(384, 384, kernel_size=(3, 3), stride=(2, 2), padding=(1, 1), groups=384, bias=False)
            (bn): BatchNorm2d(384, eps=1e-05, momentum=0.1, affine=True, track_running_stats=True)
            (rearrage): Rearrange('b c h w -> b (h w) c')
          )
          (conv_proj_v): Sequential(
            (conv): Conv2d(384, 384, kernel_size=(3, 3), stride=(2, 2), padding=(1, 1), groups=384, bias=False)
            (bn): BatchNorm2d(384, eps=1e-05, momentum=0.1, affine=True, track_running_stats=True)
            (rearrage): Rearrange('b c h w -> b (h w) c')
          )
          (proj_q): Linear(in_features=384, out_features=384, bias=True)
          (proj_k): Linear(in_features=384, out_features=384, bias=True)
          (proj_v): Linear(in_features=384, out_features=384, bias=True)
          (attn_drop): Dropout(p=0.0, inplace=False)
          (proj): Linear(in_features=384, out_features=384, bias=True)
          (proj_drop): Dropout(p=0.0, inplace=False)
        )
        (drop_path): DropPath(drop_prob=0.020)
        (norm2): LayerNorm((384,), eps=1e-05, elementwise_affine=True)
        (mlp): Mlp(
          (fc1): Linear(in_features=384, out_features=1536, bias=True)
          (act): QuickGELU()
          (fc2): Linear(in_features=1536, out_features=384, bias=True)
          (drop): Dropout(p=0.0, inplace=False)
        )
      )
      (4): Block(
        (norm1): LayerNorm((384,), eps=1e-05, elementwise_affine=True)
        (attn): Attention(
          (conv_proj_q): Sequential(
            (conv): Conv2d(384, 384, kernel_size=(3, 3), stride=(1, 1), padding=(1, 1), groups=384, bias=False)
            (bn): BatchNorm2d(384, eps=1e-05, momentum=0.1, affine=True, track_running_stats=True)
            (rearrage): Rearrange('b c h w -> b (h w) c')
          )
          (conv_proj_k): Sequential(
            (conv): Conv2d(384, 384, kernel_size=(3, 3), stride=(2, 2), padding=(1, 1), groups=384, bias=False)
            (bn): BatchNorm2d(384, eps=1e-05, momentum=0.1, affine=True, track_running_stats=True)
            (rearrage): Rearrange('b c h w -> b (h w) c')
          )
          (conv_proj_v): Sequential(
            (conv): Conv2d(384, 384, kernel_size=(3, 3), stride=(2, 2), padding=(1, 1), groups=384, bias=False)
            (bn): BatchNorm2d(384, eps=1e-05, momentum=0.1, affine=True, track_running_stats=True)
            (rearrage): Rearrange('b c h w -> b (h w) c')
          )
          (proj_q): Linear(in_features=384, out_features=384, bias=True)
          (proj_k): Linear(in_features=384, out_features=384, bias=True)
          (proj_v): Linear(in_features=384, out_features=384, bias=True)
          (attn_drop): Dropout(p=0.0, inplace=False)
          (proj): Linear(in_features=384, out_features=384, bias=True)
          (proj_drop): Dropout(p=0.0, inplace=False)
        )
        (drop_path): DropPath(drop_prob=0.027)
        (norm2): LayerNorm((384,), eps=1e-05, elementwise_affine=True)
        (mlp): Mlp(
          (fc1): Linear(in_features=384, out_features=1536, bias=True)
          (act): QuickGELU()
          (fc2): Linear(in_features=1536, out_features=384, bias=True)
          (drop): Dropout(p=0.0, inplace=False)
        )
      )
      (5): Block(
        (norm1): LayerNorm((384,), eps=1e-05, elementwise_affine=True)
        (attn): Attention(
          (conv_proj_q): Sequential(
            (conv): Conv2d(384, 384, kernel_size=(3, 3), stride=(1, 1), padding=(1, 1), groups=384, bias=False)
            (bn): BatchNorm2d(384, eps=1e-05, momentum=0.1, affine=True, track_running_stats=True)
            (rearrage): Rearrange('b c h w -> b (h w) c')
          )
          (conv_proj_k): Sequential(
            (conv): Conv2d(384, 384, kernel_size=(3, 3), stride=(2, 2), padding=(1, 1), groups=384, bias=False)
            (bn): BatchNorm2d(384, eps=1e-05, momentum=0.1, affine=True, track_running_stats=True)
            (rearrage): Rearrange('b c h w -> b (h w) c')
          )
          (conv_proj_v): Sequential(
            (conv): Conv2d(384, 384, kernel_size=(3, 3), stride=(2, 2), padding=(1, 1), groups=384, bias=False)
            (bn): BatchNorm2d(384, eps=1e-05, momentum=0.1, affine=True, track_running_stats=True)
            (rearrage): Rearrange('b c h w -> b (h w) c')
          )
          (proj_q): Linear(in_features=384, out_features=384, bias=True)
          (proj_k): Linear(in_features=384, out_features=384, bias=True)
          (proj_v): Linear(in_features=384, out_features=384, bias=True)
          (attn_drop): Dropout(p=0.0, inplace=False)
          (proj): Linear(in_features=384, out_features=384, bias=True)
          (proj_drop): Dropout(p=0.0, inplace=False)
        )
        (drop_path): DropPath(drop_prob=0.033)
        (norm2): LayerNorm((384,), eps=1e-05, elementwise_affine=True)
        (mlp): Mlp(
          (fc1): Linear(in_features=384, out_features=1536, bias=True)
          (act): QuickGELU()
          (fc2): Linear(in_features=1536, out_features=384, bias=True)
          (drop): Dropout(p=0.0, inplace=False)
        )
      )
      (6): Block(
        (norm1): LayerNorm((384,), eps=1e-05, elementwise_affine=True)
        (attn): Attention(
          (conv_proj_q): Sequential(
            (conv): Conv2d(384, 384, kernel_size=(3, 3), stride=(1, 1), padding=(1, 1), groups=384, bias=False)
            (bn): BatchNorm2d(384, eps=1e-05, momentum=0.1, affine=True, track_running_stats=True)
            (rearrage): Rearrange('b c h w -> b (h w) c')
          )
          (conv_proj_k): Sequential(
            (conv): Conv2d(384, 384, kernel_size=(3, 3), stride=(2, 2), padding=(1, 1), groups=384, bias=False)
            (bn): BatchNorm2d(384, eps=1e-05, momentum=0.1, affine=True, track_running_stats=True)
            (rearrage): Rearrange('b c h w -> b (h w) c')
          )
          (conv_proj_v): Sequential(
            (conv): Conv2d(384, 384, kernel_size=(3, 3), stride=(2, 2), padding=(1, 1), groups=384, bias=False)
            (bn): BatchNorm2d(384, eps=1e-05, momentum=0.1, affine=True, track_running_stats=True)
            (rearrage): Rearrange('b c h w -> b (h w) c')
          )
          (proj_q): Linear(in_features=384, out_features=384, bias=True)
          (proj_k): Linear(in_features=384, out_features=384, bias=True)
          (proj_v): Linear(in_features=384, out_features=384, bias=True)
          (attn_drop): Dropout(p=0.0, inplace=False)
          (proj): Linear(in_features=384, out_features=384, bias=True)
          (proj_drop): Dropout(p=0.0, inplace=False)
        )
        (drop_path): DropPath(drop_prob=0.040)
        (norm2): LayerNorm((384,), eps=1e-05, elementwise_affine=True)
        (mlp): Mlp(
          (fc1): Linear(in_features=384, out_features=1536, bias=True)
          (act): QuickGELU()
          (fc2): Linear(in_features=1536, out_features=384, bias=True)
          (drop): Dropout(p=0.0, inplace=False)
        )
      )
      (7): Block(
        (norm1): LayerNorm((384,), eps=1e-05, elementwise_affine=True)
        (attn): Attention(
          (conv_proj_q): Sequential(
            (conv): Conv2d(384, 384, kernel_size=(3, 3), stride=(1, 1), padding=(1, 1), groups=384, bias=False)
            (bn): BatchNorm2d(384, eps=1e-05, momentum=0.1, affine=True, track_running_stats=True)
            (rearrage): Rearrange('b c h w -> b (h w) c')
          )
          (conv_proj_k): Sequential(
            (conv): Conv2d(384, 384, kernel_size=(3, 3), stride=(2, 2), padding=(1, 1), groups=384, bias=False)
            (bn): BatchNorm2d(384, eps=1e-05, momentum=0.1, affine=True, track_running_stats=True)
            (rearrage): Rearrange('b c h w -> b (h w) c')
          )
          (conv_proj_v): Sequential(
            (conv): Conv2d(384, 384, kernel_size=(3, 3), stride=(2, 2), padding=(1, 1), groups=384, bias=False)
            (bn): BatchNorm2d(384, eps=1e-05, momentum=0.1, affine=True, track_running_stats=True)
            (rearrage): Rearrange('b c h w -> b (h w) c')
          )
          (proj_q): Linear(in_features=384, out_features=384, bias=True)
          (proj_k): Linear(in_features=384, out_features=384, bias=True)
          (proj_v): Linear(in_features=384, out_features=384, bias=True)
          (attn_drop): Dropout(p=0.0, inplace=False)
          (proj): Linear(in_features=384, out_features=384, bias=True)
          (proj_drop): Dropout(p=0.0, inplace=False)
        )
        (drop_path): DropPath(drop_prob=0.047)
        (norm2): LayerNorm((384,), eps=1e-05, elementwise_affine=True)
        (mlp): Mlp(
          (fc1): Linear(in_features=384, out_features=1536, bias=True)
          (act): QuickGELU()
          (fc2): Linear(in_features=1536, out_features=384, bias=True)
          (drop): Dropout(p=0.0, inplace=False)
        )
      )
      (8): Block(
        (norm1): LayerNorm((384,), eps=1e-05, elementwise_affine=True)
        (attn): Attention(
          (conv_proj_q): Sequential(
            (conv): Conv2d(384, 384, kernel_size=(3, 3), stride=(1, 1), padding=(1, 1), groups=384, bias=False)
            (bn): BatchNorm2d(384, eps=1e-05, momentum=0.1, affine=True, track_running_stats=True)
            (rearrage): Rearrange('b c h w -> b (h w) c')
          )
          (conv_proj_k): Sequential(
            (conv): Conv2d(384, 384, kernel_size=(3, 3), stride=(2, 2), padding=(1, 1), groups=384, bias=False)
            (bn): BatchNorm2d(384, eps=1e-05, momentum=0.1, affine=True, track_running_stats=True)
            (rearrage): Rearrange('b c h w -> b (h w) c')
          )
          (conv_proj_v): Sequential(
            (conv): Conv2d(384, 384, kernel_size=(3, 3), stride=(2, 2), padding=(1, 1), groups=384, bias=False)
            (bn): BatchNorm2d(384, eps=1e-05, momentum=0.1, affine=True, track_running_stats=True)
            (rearrage): Rearrange('b c h w -> b (h w) c')
          )
          (proj_q): Linear(in_features=384, out_features=384, bias=True)
          (proj_k): Linear(in_features=384, out_features=384, bias=True)
          (proj_v): Linear(in_features=384, out_features=384, bias=True)
          (attn_drop): Dropout(p=0.0, inplace=False)
          (proj): Linear(in_features=384, out_features=384, bias=True)
          (proj_drop): Dropout(p=0.0, inplace=False)
        )
        (drop_path): DropPath(drop_prob=0.053)
        (norm2): LayerNorm((384,), eps=1e-05, elementwise_affine=True)
        (mlp): Mlp(
          (fc1): Linear(in_features=384, out_features=1536, bias=True)
          (act): QuickGELU()
          (fc2): Linear(in_features=1536, out_features=384, bias=True)
          (drop): Dropout(p=0.0, inplace=False)
        )
      )
      (9): Block(
        (norm1): LayerNorm((384,), eps=1e-05, elementwise_affine=True)
        (attn): Attention(
          (conv_proj_q): Sequential(
            (conv): Conv2d(384, 384, kernel_size=(3, 3), stride=(1, 1), padding=(1, 1), groups=384, bias=False)
            (bn): BatchNorm2d(384, eps=1e-05, momentum=0.1, affine=True, track_running_stats=True)
            (rearrage): Rearrange('b c h w -> b (h w) c')
          )
          (conv_proj_k): Sequential(
            (conv): Conv2d(384, 384, kernel_size=(3, 3), stride=(2, 2), padding=(1, 1), groups=384, bias=False)
            (bn): BatchNorm2d(384, eps=1e-05, momentum=0.1, affine=True, track_running_stats=True)
            (rearrage): Rearrange('b c h w -> b (h w) c')
          )
          (conv_proj_v): Sequential(
            (conv): Conv2d(384, 384, kernel_size=(3, 3), stride=(2, 2), padding=(1, 1), groups=384, bias=False)
            (bn): BatchNorm2d(384, eps=1e-05, momentum=0.1, affine=True, track_running_stats=True)
            (rearrage): Rearrange('b c h w -> b (h w) c')
          )
          (proj_q): Linear(in_features=384, out_features=384, bias=True)
          (proj_k): Linear(in_features=384, out_features=384, bias=True)
          (proj_v): Linear(in_features=384, out_features=384, bias=True)
          (attn_drop): Dropout(p=0.0, inplace=False)
          (proj): Linear(in_features=384, out_features=384, bias=True)
          (proj_drop): Dropout(p=0.0, inplace=False)
        )
        (drop_path): DropPath(drop_prob=0.060)
        (norm2): LayerNorm((384,), eps=1e-05, elementwise_affine=True)
        (mlp): Mlp(
          (fc1): Linear(in_features=384, out_features=1536, bias=True)
          (act): QuickGELU()
          (fc2): Linear(in_features=1536, out_features=384, bias=True)
          (drop): Dropout(p=0.0, inplace=False)
        )
      )
      (10): Block(
        (norm1): LayerNorm((384,), eps=1e-05, elementwise_affine=True)
        (attn): Attention(
          (conv_proj_q): Sequential(
            (conv): Conv2d(384, 384, kernel_size=(3, 3), stride=(1, 1), padding=(1, 1), groups=384, bias=False)
            (bn): BatchNorm2d(384, eps=1e-05, momentum=0.1, affine=True, track_running_stats=True)
            (rearrage): Rearrange('b c h w -> b (h w) c')
          )
          (conv_proj_k): Sequential(
            (conv): Conv2d(384, 384, kernel_size=(3, 3), stride=(2, 2), padding=(1, 1), groups=384, bias=False)
            (bn): BatchNorm2d(384, eps=1e-05, momentum=0.1, affine=True, track_running_stats=True)
            (rearrage): Rearrange('b c h w -> b (h w) c')
          )
          (conv_proj_v): Sequential(
            (conv): Conv2d(384, 384, kernel_size=(3, 3), stride=(2, 2), padding=(1, 1), groups=384, bias=False)
            (bn): BatchNorm2d(384, eps=1e-05, momentum=0.1, affine=True, track_running_stats=True)
            (rearrage): Rearrange('b c h w -> b (h w) c')
          )
          (proj_q): Linear(in_features=384, out_features=384, bias=True)
          (proj_k): Linear(in_features=384, out_features=384, bias=True)
          (proj_v): Linear(in_features=384, out_features=384, bias=True)
          (attn_drop): Dropout(p=0.0, inplace=False)
          (proj): Linear(in_features=384, out_features=384, bias=True)
          (proj_drop): Dropout(p=0.0, inplace=False)
        )
        (drop_path): DropPath(drop_prob=0.067)
        (norm2): LayerNorm((384,), eps=1e-05, elementwise_affine=True)
        (mlp): Mlp(
          (fc1): Linear(in_features=384, out_features=1536, bias=True)
          (act): QuickGELU()
          (fc2): Linear(in_features=1536, out_features=384, bias=True)
          (drop): Dropout(p=0.0, inplace=False)
        )
      )
      (11): Block(
        (norm1): LayerNorm((384,), eps=1e-05, elementwise_affine=True)
        (attn): Attention(
          (conv_proj_q): Sequential(
            (conv): Conv2d(384, 384, kernel_size=(3, 3), stride=(1, 1), padding=(1, 1), groups=384, bias=False)
            (bn): BatchNorm2d(384, eps=1e-05, momentum=0.1, affine=True, track_running_stats=True)
            (rearrage): Rearrange('b c h w -> b (h w) c')
          )
          (conv_proj_k): Sequential(
            (conv): Conv2d(384, 384, kernel_size=(3, 3), stride=(2, 2), padding=(1, 1), groups=384, bias=False)
            (bn): BatchNorm2d(384, eps=1e-05, momentum=0.1, affine=True, track_running_stats=True)
            (rearrage): Rearrange('b c h w -> b (h w) c')
          )
          (conv_proj_v): Sequential(
            (conv): Conv2d(384, 384, kernel_size=(3, 3), stride=(2, 2), padding=(1, 1), groups=384, bias=False)
            (bn): BatchNorm2d(384, eps=1e-05, momentum=0.1, affine=True, track_running_stats=True)
            (rearrage): Rearrange('b c h w -> b (h w) c')
          )
          (proj_q): Linear(in_features=384, out_features=384, bias=True)
          (proj_k): Linear(in_features=384, out_features=384, bias=True)
          (proj_v): Linear(in_features=384, out_features=384, bias=True)
          (attn_drop): Dropout(p=0.0, inplace=False)
          (proj): Linear(in_features=384, out_features=384, bias=True)
          (proj_drop): Dropout(p=0.0, inplace=False)
        )
        (drop_path): DropPath(drop_prob=0.073)
        (norm2): LayerNorm((384,), eps=1e-05, elementwise_affine=True)
        (mlp): Mlp(
          (fc1): Linear(in_features=384, out_features=1536, bias=True)
          (act): QuickGELU()
          (fc2): Linear(in_features=1536, out_features=384, bias=True)
          (drop): Dropout(p=0.0, inplace=False)
        )
      )
      (12): Block(
        (norm1): LayerNorm((384,), eps=1e-05, elementwise_affine=True)
        (attn): Attention(
          (conv_proj_q): Sequential(
            (conv): Conv2d(384, 384, kernel_size=(3, 3), stride=(1, 1), padding=(1, 1), groups=384, bias=False)
            (bn): BatchNorm2d(384, eps=1e-05, momentum=0.1, affine=True, track_running_stats=True)
            (rearrage): Rearrange('b c h w -> b (h w) c')
          )
          (conv_proj_k): Sequential(
            (conv): Conv2d(384, 384, kernel_size=(3, 3), stride=(2, 2), padding=(1, 1), groups=384, bias=False)
            (bn): BatchNorm2d(384, eps=1e-05, momentum=0.1, affine=True, track_running_stats=True)
            (rearrage): Rearrange('b c h w -> b (h w) c')
          )
          (conv_proj_v): Sequential(
            (conv): Conv2d(384, 384, kernel_size=(3, 3), stride=(2, 2), padding=(1, 1), groups=384, bias=False)
            (bn): BatchNorm2d(384, eps=1e-05, momentum=0.1, affine=True, track_running_stats=True)
            (rearrage): Rearrange('b c h w -> b (h w) c')
          )
          (proj_q): Linear(in_features=384, out_features=384, bias=True)
          (proj_k): Linear(in_features=384, out_features=384, bias=True)
          (proj_v): Linear(in_features=384, out_features=384, bias=True)
          (attn_drop): Dropout(p=0.0, inplace=False)
          (proj): Linear(in_features=384, out_features=384, bias=True)
          (proj_drop): Dropout(p=0.0, inplace=False)
        )
        (drop_path): DropPath(drop_prob=0.080)
        (norm2): LayerNorm((384,), eps=1e-05, elementwise_affine=True)
        (mlp): Mlp(
          (fc1): Linear(in_features=384, out_features=1536, bias=True)
          (act): QuickGELU()
          (fc2): Linear(in_features=1536, out_features=384, bias=True)
          (drop): Dropout(p=0.0, inplace=False)
        )
      )
      (13): Block(
        (norm1): LayerNorm((384,), eps=1e-05, elementwise_affine=True)
        (attn): Attention(
          (conv_proj_q): Sequential(
            (conv): Conv2d(384, 384, kernel_size=(3, 3), stride=(1, 1), padding=(1, 1), groups=384, bias=False)
            (bn): BatchNorm2d(384, eps=1e-05, momentum=0.1, affine=True, track_running_stats=True)
            (rearrage): Rearrange('b c h w -> b (h w) c')
          )
          (conv_proj_k): Sequential(
            (conv): Conv2d(384, 384, kernel_size=(3, 3), stride=(2, 2), padding=(1, 1), groups=384, bias=False)
            (bn): BatchNorm2d(384, eps=1e-05, momentum=0.1, affine=True, track_running_stats=True)
            (rearrage): Rearrange('b c h w -> b (h w) c')
          )
          (conv_proj_v): Sequential(
            (conv): Conv2d(384, 384, kernel_size=(3, 3), stride=(2, 2), padding=(1, 1), groups=384, bias=False)
            (bn): BatchNorm2d(384, eps=1e-05, momentum=0.1, affine=True, track_running_stats=True)
            (rearrage): Rearrange('b c h w -> b (h w) c')
          )
          (proj_q): Linear(in_features=384, out_features=384, bias=True)
          (proj_k): Linear(in_features=384, out_features=384, bias=True)
          (proj_v): Linear(in_features=384, out_features=384, bias=True)
          (attn_drop): Dropout(p=0.0, inplace=False)
          (proj): Linear(in_features=384, out_features=384, bias=True)
          (proj_drop): Dropout(p=0.0, inplace=False)
        )
        (drop_path): DropPath(drop_prob=0.087)
        (norm2): LayerNorm((384,), eps=1e-05, elementwise_affine=True)
        (mlp): Mlp(
          (fc1): Linear(in_features=384, out_features=1536, bias=True)
          (act): QuickGELU()
          (fc2): Linear(in_features=1536, out_features=384, bias=True)
          (drop): Dropout(p=0.0, inplace=False)
        )
      )
      (14): Block(
        (norm1): LayerNorm((384,), eps=1e-05, elementwise_affine=True)
        (attn): Attention(
          (conv_proj_q): Sequential(
            (conv): Conv2d(384, 384, kernel_size=(3, 3), stride=(1, 1), padding=(1, 1), groups=384, bias=False)
            (bn): BatchNorm2d(384, eps=1e-05, momentum=0.1, affine=True, track_running_stats=True)
            (rearrage): Rearrange('b c h w -> b (h w) c')
          )
          (conv_proj_k): Sequential(
            (conv): Conv2d(384, 384, kernel_size=(3, 3), stride=(2, 2), padding=(1, 1), groups=384, bias=False)
            (bn): BatchNorm2d(384, eps=1e-05, momentum=0.1, affine=True, track_running_stats=True)
            (rearrage): Rearrange('b c h w -> b (h w) c')
          )
          (conv_proj_v): Sequential(
            (conv): Conv2d(384, 384, kernel_size=(3, 3), stride=(2, 2), padding=(1, 1), groups=384, bias=False)
            (bn): BatchNorm2d(384, eps=1e-05, momentum=0.1, affine=True, track_running_stats=True)
            (rearrage): Rearrange('b c h w -> b (h w) c')
          )
          (proj_q): Linear(in_features=384, out_features=384, bias=True)
          (proj_k): Linear(in_features=384, out_features=384, bias=True)
          (proj_v): Linear(in_features=384, out_features=384, bias=True)
          (attn_drop): Dropout(p=0.0, inplace=False)
          (proj): Linear(in_features=384, out_features=384, bias=True)
          (proj_drop): Dropout(p=0.0, inplace=False)
        )
        (drop_path): DropPath(drop_prob=0.093)
        (norm2): LayerNorm((384,), eps=1e-05, elementwise_affine=True)
        (mlp): Mlp(
          (fc1): Linear(in_features=384, out_features=1536, bias=True)
          (act): QuickGELU()
          (fc2): Linear(in_features=1536, out_features=384, bias=True)
          (drop): Dropout(p=0.0, inplace=False)
        )
      )
      (15): Block(
        (norm1): LayerNorm((384,), eps=1e-05, elementwise_affine=True)
        (attn): Attention(
          (conv_proj_q): Sequential(
            (conv): Conv2d(384, 384, kernel_size=(3, 3), stride=(1, 1), padding=(1, 1), groups=384, bias=False)
            (bn): BatchNorm2d(384, eps=1e-05, momentum=0.1, affine=True, track_running_stats=True)
            (rearrage): Rearrange('b c h w -> b (h w) c')
          )
          (conv_proj_k): Sequential(
            (conv): Conv2d(384, 384, kernel_size=(3, 3), stride=(2, 2), padding=(1, 1), groups=384, bias=False)
            (bn): BatchNorm2d(384, eps=1e-05, momentum=0.1, affine=True, track_running_stats=True)
            (rearrage): Rearrange('b c h w -> b (h w) c')
          )
          (conv_proj_v): Sequential(
            (conv): Conv2d(384, 384, kernel_size=(3, 3), stride=(2, 2), padding=(1, 1), groups=384, bias=False)
            (bn): BatchNorm2d(384, eps=1e-05, momentum=0.1, affine=True, track_running_stats=True)
            (rearrage): Rearrange('b c h w -> b (h w) c')
          )
          (proj_q): Linear(in_features=384, out_features=384, bias=True)
          (proj_k): Linear(in_features=384, out_features=384, bias=True)
          (proj_v): Linear(in_features=384, out_features=384, bias=True)
          (attn_drop): Dropout(p=0.0, inplace=False)
          (proj): Linear(in_features=384, out_features=384, bias=True)
          (proj_drop): Dropout(p=0.0, inplace=False)
        )
        (drop_path): DropPath(drop_prob=0.100)
        (norm2): LayerNorm((384,), eps=1e-05, elementwise_affine=True)
        (mlp): Mlp(
          (fc1): Linear(in_features=384, out_features=1536, bias=True)
          (act): QuickGELU()
          (fc2): Linear(in_features=1536, out_features=384, bias=True)
          (drop): Dropout(p=0.0, inplace=False)
        )
      )
    )
  )
  (norm): LayerNorm((384,), eps=1e-05, elementwise_affine=True)
  (head): Linear(in_features=384, out_features=1000, bias=True)
)
2024-04-26 01:04:35,835:[P:3148]:Rank[0/2] Trainable Model Total Parameter: 	31.6M
2024-04-26 01:04:35,935:[P:3148]:Rank[0/2] => use timm transform for training
2024-04-26 01:04:35,939:[P:3148]:Rank[0/2] => use timm loader for training
